model.pth (torch, 40436 bytes, 6 tensors)

layer1.weight f4 [128, 8]
0	0xbd446f7e	-0.04795789
1	0x3e2e4ebd	0.17022224
2	0xbe4673d6	-0.19380125
3	0x3d1acb69	0.037791643
4	0x3f06a1f8	0.52590895
5	0xbe31a663	-0.17348628
6	0x3e4490a2	0.19195798
7	0x3e25794c	0.16159552
8	0x3d9f82f7	0.077886514
9	0xbcaa9333	-0.020822143
10	0x3ccf6a74	0.025319315
11	0xbdde98c2	-0.1086898
12	0xbf2126fd	-0.62950116
13	0x3ca0ec3c	0.019643895
14	0x3ea339a3	0.3187991
15	0x3ad6795c	0.0016363072
16	0x3deb00ea	0.11474784
17	0xbe25cdaa	-0.16191736
18	0xbe0e0621	-0.13869525
19	0x3d99a3c8	0.07501942
20	0xbee09690	-0.4386487
21	0x3db2fc32	0.08739509
22	0x3e2645e0	0.16237593
23	0xbe475eaa	-0.19469705
24	0x3e77b4c3	0.24190049
25	0xbda70578	-0.0815534
26	0x3e31e816	0.1737369
27	0x3e914e66	0.28380126
28	0x3cf28259	0.02960317
29	0x3e8d3865	0.27582088
30	0xbd0250dc	-0.031815395
31	0xbe58b189	-0.21161474
32	0xbd913c82	-0.07091619
33	0xbd411528	-0.047139317
34	0x3e262345	0.16224392
35	0x3e938115	0.2880942
36	0xbd0a429e	-0.033754937
37	0xbe0ea78f	-0.13931106
38	0xbf0b7ec6	-0.54490316
39	0x3e3b8adb	0.18314688
40	0x3ca523e3	0.020158714
41	0x3d1312ce	0.035906605
42	0xbd05bbbc	-0.03264974
43	0xbf748940	-0.95521927
44	0x3e2305d7	0.15920196
45	0x3b43644d	0.0029814423
46	0xbd6aa475	-0.057285745
47	0x3c87c3ce	0.01657286
48	0x3e66199f	0.22470711
49	0xbe8294d9	-0.25504187
50	0x3e90f5a3	0.28312406
51	0xbb464f4e	-0.0030259672
52	0xbd960896	-0.073258564
53	0x3e898ba3	0.26864347
54	0xbef4add4	-0.4778887
55	0xbce13305	-0.027490148
56	0x3e6c0c7d	0.23051639
57	0xbea2c1e0	-0.3178854
58	0x3e091088	0.13385212
59	0x3eaeaa07	0.34114096
60	0x3e768027	0.24072324
61	0x3e8be1da	0.2732075
62	0xbee2c70a	-0.4429248
63	0x3e983c12	0.2973333
64	0x3d8a0cc0	0.06740713
65	0x3caf43e2	0.021394674
66	0x3e010f1b	0.12603419
67	0x3e1699d3	0.14707117
68	0x3cfd3d02	0.03091288
69	0xbe83245d	-0.2561368
70	0x3e83f70d	0.25774422
71	0x3dcd8b1a	0.10036297
72	0xbec70eec	-0.38878572
73	0xbe229e6e	-0.15880749
74	0x3c813c22	0.015775744
75	0xbcb66462	-0.022264663
76	0xbe6f6a3c	-0.23380369
77	0xbdcc0b62	-0.099631086
78	0x3eac3968	0.33637547
79	0xbe0a6c0a	-0.13517776
80	0xbe37102d	-0.17877264
81	0x3d48b40c	0.04899983
82	0x3d5f68a6	0.05454316
83	0xbf06352c	-0.52424884
84	0xbf16bc3d	-0.5888098
85	0xbdb00981	-0.08595563
86	0xbe04fd84	-0.12987334
87	0xbc86e5a9	-0.016466932
88	0x3e02660c	0.1273424
89	0x3e10eef9	0.14153661
90	0x3d3af491	0.045643393
91	0x3e78025c	0.2421965
92	0xbf121de9	-0.5707689
93	0xbe0f12f9	-0.13972081
94	0xbea54627	-0.32280084
95	0xbe5b5486	-0.21418962
96	0xbeaca50b	-0.33719668
97	0xbe390d9f	-0.18071602
98	0xbe88108f	-0.26575133
99	0xbe3ef87e	-0.1864948
100	0x3e52d389	0.20588507
101	0x3d41767f	0.047232147
102	0xbd25ad6e	-0.0404486
103	0xbe9e5942	-0.30927473
104	0xbe07b108	-0.13251126
105	0x3e4c4208	0.19947064
106	0xbdcc6508	-0.09980208
107	0xbd935e59	-0.0719573
108	0xbd61bbfc	-0.055110916
109	0xbe1fb440	-0.15596104
110	0x3e8eed7e	0.27915567
111	0xbe9adb6a	-0.30245525
112	0xbe819273	-0.25307044
113	0x3dec9b2f	0.115530364
114	0xbc2883ed	-0.01028536
115	0xbe822d34	-0.25425112
116	0x3d1d1b0e	0.03835588
117	0xbe8ab19a	-0.27088624
118	0x3e97139a	0.29507142
119	0x3e4e64da	0.2015566
120	0xbea16a2f	-0.31526324
121	0x3d6aa3c6	0.057285093
122	0xbc0389c2	-0.0080284495
123	0x3dfe40db	0.12414714
124	0x3cf1bffe	0.029510494
125	0xbdfcaaff	-0.123373024
126	0xbdd15c73	-0.102227114
127	0x3b9a4224	0.0047075916
128	0xbe67fbe9	-0.2265469
129	0x3e034884	0.12820631
130	0xbe6169d6	-0.2201303
131	0x3bfe2c5d	0.0077567534
132	0x3d378463	0.04480399
133	0x3e223996	0.1584228
134	0x3e97f5ea	0.29679805
135	0xbe7777bc	-0.24166769
136	0x3bc9e740	0.0061616004
137	0x3e7fd02a	0.24981752
138	0xbaec8bb2	-0.0018047004
139	0x3e87b25a	0.2650326
140	0x3e2a634c	0.16639441
141	0x3e560965	0.20902021
142	0xbec454c0	-0.3834591
143	0xbb908fb8	-0.004411664
144	0x3e89930b	0.26869997
145	0x3ea6a79e	0.32549757
146	0x3e3b4fab	0.1829211
147	0x3ec1cad2	0.37850052
148	0x3e2d8813	0.1694644
149	0xbe9df7bc	-0.3085307
150	0xbea1d867	-0.31610414
151	0x3e819e9c	0.25316322
152	0xbccfcef1	-0.025367232
153	0x3dff17c0	0.12455702
154	0x3d9d4b8a	0.076804236
155	0xbf40925b	-0.7522332
156	0x3eab8365	0.33498684
157	0x3ddf19c8	0.10893589
158	0x3dd738c0	0.10508871
159	0xbd1e5126	-0.038651608
160	0xbe754928	-0.23953688
161	0x3e96ddd6	0.29466122
162	0xbe90724d	-0.28212205
163	0xbe78948f	-0.2427542
164	0xbd0396bd	-0.032126177
165	0xbe75601e	-0.23962447
166	0xbe5ab528	-0.21358168
167	0x3e5618c3	0.20907883
168	0x3e865e58	0.26243854
169	0x3d1d8eeb	0.038466375
170	0x3ddb1435	0.106972136
171	0x3ea066f7	0.31328556
172	0xbe85162f	-0.25993487
173	0xbec2db8e	-0.38058132
174	0x3e4f64e5	0.20253332
175	0xbc14c2e5	-0.00907967
176	0xbd8509fb	-0.06496044
177	0xbebfc7b3	-0.37457046
178	0x3e1c2522	0.1524854
179	0xbe329ef1	-0.17443444
180	0x3d262dba	0.040570952
181	0x3c835680	0.016032457
182	0xbe600b82	-0.2187939
183	0x3d73baf9	0.059504483
184	0xbda8ba01	-0.082386024
185	0xbe03ab6b	-0.1285836
186	0xbe445c53	-0.19175844
187	0x3f15fbc0	0.58587265
188	0x3e3f8621	0.1870351
189	0x3e333dec	0.1750409
190	0x3e288d8d	0.16460247
191	0x3d8203a4	0.06348351
192	0xbdb13de3	-0.08654382
193	0x3da83f5a	0.08215208
194	0xbcc574a3	-0.024103468
195	0x3f1aaf71	0.6042395
196	0xbe4769b5	-0.19473918
197	0xbcffe39f	-0.031236468
198	0x3e9b5610	0.30339098
199	0xbd0c6669	-0.034277353
200	0xbd8f056b	-0.06983455
201	0x3e4b2b63	0.1984077
202	0xbe6c9f60	-0.23107672
203	0x3eb68f6d	0.356563
204	0x3dd3f547	0.10349517
205	0x3e5556c7	0.20833884
206	0xbf0e1c14	-0.55511594
207	0x3c878261	0.016541662
208	0x3e848c38	0.25888228
209	0xbe84a88d	-0.25909844
210	0x3e20d288	0.15705311
211	0xbdf49550	-0.119425416
212	0xbf4badd7	-0.79562134
213	0x3e76c206	0.24097452
214	0x3e7c4191	0.24634387
215	0xbd284c2a	-0.04108826
216	0x3e632682	0.22182658
217	0xbd8ed19b	-0.06973573
218	0xbea76782	-0.32696158
219	0xbdf72ead	-0.120694496
220	0xbe55ef8c	-0.20892161
221	0xbe9fab0c	-0.31185186
222	0xbed5a28a	-0.4172557
223	0x3e264a54	0.16239291
224	0x3cc5df10	0.024154216
225	0xbc411639	-0.011785083
226	0x3c57416a	0.0131381545
227	0x3d2740c7	0.04083326
228	0xbf803491	-1.0016042
229	0x3bf9d841	0.0076246564
230	0xbccf608c	-0.025314592
231	0xbb2a21c0	-0.0025960058
232	0xbe06478c	-0.1311323
233	0x3eb47fcd	0.35253754
234	0x3eb7c57b	0.35892853
235	0x3e63ac6d	0.22233744
236	0x3b171bf4	0.0023057433
237	0x3e8d9cc7	0.27658674
238	0xbc8a2da2	-0.016867463
239	0x3e7d8000	0.2475586
240	0xbd281bad	-0.04104202
241	0xbc614438	-0.013749175
242	0xbde631dc	-0.11239979
243	0xbd1142c0	-0.03546405
244	0x3f9094bb	1.1295389
245	0x3c63b43c	0.013897952
246	0x3dec0be8	0.115257084
247	0x3c46022b	0.012085478
248	0xbe3c5daf	-0.18395112
249	0x3dae6683	0.08515646
250	0x3de92ab0	0.11385095
251	0xbe4b5f64	-0.19860607
252	0x3ee24b06	0.44197863
253	0x3e48a20a	0.19593063
254	0x3e8f7719	0.28020552
255	0xbe755448	-0.23957932

layer1.bias f4 [128]
0	0x3ed0b762	0.4076491
1	0xbdf9d839	-0.12199444
2	0xbe3508ea	-0.17679182
3	0x3db722c4	0.08942178
4	0x3d92f2c7	0.07175212
5	0xbddb9d03	-0.10723307
6	0x3e566b8b	0.20939462
7	0xbcf0f449	-0.02941336
8	0xbe1082f1	-0.1411245
9	0x3cef1990	0.029186994
10	0x3e804f82	0.2506066
11	0x3de3241b	0.11090871
12	0xbe2969cb	-0.16544263
13	0xbe064c0f	-0.13114952
14	0xbeb4f9a2	-0.35346705
15	0x3e46484f	0.19363521
16	0x3dc3d53b	0.09562155
17	0xbe9f71c4	-0.31141484
18	0xbe96519b	-0.29359135
19	0x3d705e25	0.058683533
20	0x3ec086f9	0.37602976
21	0x3e95f4ff	0.2928848
22	0x3d836447	0.06415611
23	0xbde31c7f	-0.110894196
24	0xbda591d8	-0.08084458
25	0xbd5af604	-0.053457275
26	0xbe8389d6	-0.25691098
27	0x3c8ad3d0	0.016946703
28	0xbd1fbb63	-0.038997065
29	0xbebd2295	-0.36940446
30	0xbb970f83	-0.0046100034
31	0x3d8ec091	0.06970323
32	0x3e822ec3	0.254263
33	0x3dc261eb	0.094913326
34	0x3e4f637e	0.20252797
35	0x3f0f1c8c	0.55902934
36	0xbd8af5a5	-0.06785134
37	0xbc787946	-0.015165633
38	0xbe92b77e	-0.28655618
39	0x3edb1226	0.42787284
40	0xbe6c1437	-0.23054586
41	0xbea28821	-0.31744483
42	0xbd9dcd16	-0.07705133
43	0xbe0038f9	-0.12521733
44	0xbe706e32	-0.23479536
45	0x3da4e35f	0.0805118
46	0x3e478847	0.1948558
47	0x3e08f476	0.13374504
48	0x3e8dd28d	0.276997
49	0x3e412f5f	0.18865727
50	0x3d17c903	0.037056934
51	0x3cd49aec	0.025952779
52	0xbe01af47	-0.12664519
53	0x3d8854b6	0.06656782
54	0x3eebde45	0.46068016
55	0x3ea91e39	0.3303087
56	0xbe520f84	-0.20513731
57	0x3e4fdee1	0.20299865
58	0xbdc08ef4	-0.09402266
59	0xbe87ab99	-0.26498106
60	0xbe78c2de	-0.24293086
61	0xbdf622b7	-0.1201834
62	0xbbad5ccd	-0.0052906037
63	0xbeacfef8	-0.33788276
64	0x3e902477	0.2815282
65	0xbe782583	-0.2423306
66	0x3e2eacea	0.17058149
67	0x3e2c7e35	0.16845019
68	0xbe93a4c9	-0.2883666
69	0x3c04818b	0.008087526
70	0xbe0af96f	-0.13571714
71	0xbe3a43f7	-0.18189989
72	0x3e5ba6a0	0.21450281
73	0xbe202b59	-0.15641536
74	0xbc044ff4	-0.008075703
75	0x3e647cf4	0.22313291
76	0xbe188b37	-0.14896856
77	0x3eb25e4c	0.34837568
78	0x3d3649dd	0.044504035
79	0x3e929483	0.2862893
80	0x3e714402	0.23561099
81	0xbdea245c	-0.11432716
82	0xbe985151	-0.2974954
83	0xbe7f5930	-0.24936366
84	0x3edb66f1	0.42851976
85	0xbe022bfa	-0.12712088
86	0xbcf97549	-0.030451434
87	0xbeabbf16	-0.33544225
88	0x3e9a7fcc	0.30175626
89	0xbdf9b139	-0.12192006
90	0x3d183df7	0.03716847
91	0xbe755634	-0.23958665
92	0x3db250ab	0.087067924
93	0xbe7d2ec6	-0.24724874
94	0x3ea815b2	0.32829052
95	0x3d3ea02e	0.046539478
96	0x3ebf95dc	0.3741902
97	0xbca03ee3	-0.019561237
98	0x3e2a8d55	0.16655476
99	0x3efbd292	0.4918409
100	0x3e7516d2	0.23934487
101	0x3dc476d2	0.09592976
102	0x3dbbc8c2	0.09169151
103	0xbe7ed78a	-0.24886909
104	0xbd426dbf	-0.047467943
105	0xbe0d1619	-0.13777961
106	0xbd69502c	-0.056961223
107	0xbe7bdbc4	-0.24595553
108	0x3e1bfe6e	0.15233776
109	0xbe1b2d02	-0.15153888
110	0x3bf35a6a	0.0074265497
111	0x3dd32f2c	0.10311732
112	0xbeae0e0c	-0.33995092
113	0x3dfbe055	0.12298647
114	0x3e9a7d51	0.30173734
115	0x3ec272b6	0.37978142
116	0x3eb9db67	0.36300203
117	0xbea38647	-0.31938383
118	0x3edba48e	0.42898983
119	0x3ece8f86	0.40343875
120	0xbed5e579	-0.41776636
121	0xbe5cd353	-0.21564989
122	0x3d8d0e8f	0.068875425
123	0xbe2bff6f	-0.16796659
124	0xbd3e07b5	-0.04639407
125	0x3e84d73a	0.25945455
126	0x3e95eb33	0.29281005
127	0x3eea20de	0.457282

layer2.weight f4 [64, 128]
0	0x3db8164e	0.08988629
1	0x3de3738a	0.11106022
2	0x3dbff0a6	0.09372072
3	0x3b137bde	0.002250425
4	0xbda1e373	-0.079047106
5	0x3e6094b8	0.21931732
6	0xbdf9cdee	-0.12197481
7	0x3d17fc38	0.03710577
8	0xbd8e76cb	-0.06956252
9	0x3d992ee1	0.074796446
10	0xbc7d5a3a	-0.015463406
11	0xba1e216a	-0.0006032201
12	0x3dd56404	0.10419467
13	0xbd3951b5	-0.045243938
14	0x3c537d6f	0.012908324
15	0xbd5d61b4	-0.054048255
16	0x3d8ac227	0.06775313
17	0xbc8161f2	-0.015793774
18	0xbd4b1c00	-0.04958725
19	0x3d11c965	0.035592455
20	0x3c9a6564	0.018847175
21	0xbda241a8	-0.07922679
22	0xbd3266c1	-0.043555025
23	0x3e2b027b	0.16700165
24	0x3e104259	0.1408781
25	0xbd44f96f	-0.04808944
26	0x3decc8f6	0.11561768
27	0x3d751c3f	0.05984139
28	0x3e884ec8	0.26622605
29	0x3d0bf70a	0.03417114
30	0x3eb4e97b	0.3533438
31	0x3c9b1f59	0.018935846
32	0xbddf1430	-0.10892522
33	0x3d174970	0.03693527
34	0x3d2e08f8	0.042489022
35	0xbdf33a67	-0.11876374
36	0x3d66297f	0.056191918
37	0x3eb7f175	0.35926405
38	0x3e723e0c	0.23656482
39	0xbd9a60fb	-0.07538029
40	0x3e0a0ad0	0.13480687
41	0xbd02828b	-0.031862777
42	0x3d98fed8	0.074704826
43	0xbc9803ea	-0.018556554
44	0x3e4acd64	0.19804913
45	0x3d32d260	0.04365766
46	0x3d22fc86	0.039791606
47	0x3d6dbb70	0.058040082
48	0xbd7fd0c4	-0.062454954
49	0x3caba16e	0.020951
50	0x3e1f7b47	0.1557437
51	0xbd592234	-0.053011134
52	0x3e0e09e3	0.13870959
53	0x3daaeb08	0.0834561
54	0xbbef50ed	-0.0073033483
55	0x3d00b100	0.0314188
56	0x3e0d265c	0.13784164
57	0xbc04edf1	-0.00811337
58	0xbcbbffd3	-0.022949135
59	0x3d93c94d	0.072161295
60	0x3dcecb88	0.10097414
61	0x3b595075	0.0033159528
62	0x3d968b7a	0.07350822
63	0x3dafeb94	0.08589855
64	0xbd856a07	-0.06514364
65	0x3e95ba51	0.2924371
66	0x3e3935fd	0.18087001
67	0xbe144ab4	-0.14481622
68	0x3db06a78	0.08614057
69	0xbda4198d	-0.08012686
70	0x3d67f44d	0.056629468
71	0x3dbce4e5	0.09223346
72	0x3e0d7339	0.13813485
73	0xbc53a4aa	-0.012917677
74	0x3e5154a5	0.20442446
75	0x3d2e674d	0.042578984
76	0x3e3382ca	0.17530361
77	0xbd174c26	-0.036937855
78	0x3d0645b9	0.032781336
79	0xbc789281	-0.015171648
80	0x3da72598	0.08161467
81	0x3e1103db	0.14161627
82	0x3db4d9b3	0.08830585
83	0xbe1bedf5	-0.15227492
84	0xbd3b7301	-0.045763973
85	0x3e6a2029	0.2286383
86	0x3eae8a75	0.3409001
87	0xbe6fe616	-0.23427615
88	0x3d5e636b	0.05429403
89	0x3da5984e	0.080856904
90	0x3e0fccd1	0.14042975
91	0x3dbbcee1	0.091703184
92	0x3d1802e7	0.037112143
93	0x3da74682	0.08167745
94	0x3c36b2a8	0.011150993
95	0x3d9639ab	0.07335218
96	0xbd5bcce1	-0.053662185
97	0x3e04b64d	0.12960167
98	0xbde0c42c	-0.10974917
99	0xbbd5aa6e	-0.006520561
100	0x3d6a1fc1	0.05715919
101	0x3d17fa18	0.037103742
102	0xbd64c528	-0.055852085
103	0x3d42f76f	0.047599252
104	0xbd9fc6f0	-0.07801616
105	0x3cd9664a	0.026538033
106	0x3d8846b8	0.066541135
107	0x3dd222c9	0.10260541
108	0xbcbeae3a	-0.023276437
109	0x3a0157b8	0.00049340306
110	0xbc31b08e	-0.010845317
111	0x3dbed902	0.09318735
112	0xbdd96d6e	-0.10616575
113	0x3d8d8b85	0.06911377
114	0xbca7e77d	-0.020496124
115	0xbdae3f65	-0.08508185
116	0xbda9ec7f	-0.08297061
117	0x3e1b3654	0.15157443
118	0x3ca33693	0.019923484
119	0x3bf0341c	0.0073304307
120	0x3e29c2cc	0.16578215
121	0x3de9c389	0.114142485
122	0x3dd903ed	0.10596452
123	0x3e236cab	0.15959422
124	0x3cc4bdd3	0.024016296
125	0xbda96ca8	-0.08272678
126	0xbc51424c	-0.012772154
127	0x3a9db8e2	0.0012033249
128	0xbdf1a9e5	-0.11799983
129	0x3eae116d	0.3399767
130	0x3e6c5af3	0.2308157
131	0xbd2bbcb7	-0.04192802
132	0xbdb34d71	-0.08755005
133	0x3c6a8f48	0.0143163875
134	0xbcfa30c8	-0.030540839
135	0xbd65d831	-0.05611438
136	0xbc947326	-0.018121313
137	0x3c6c50a3	0.014423522
138	0x3e2cecbb	0.1688718
139	0x3e4c471a	0.19948998
140	0x3c274114	0.010208387
141	0x3d346586	0.044042133
142	0x3da63be5	0.08116893
143	0xbd59974f	-0.053122815
144	0x3b9dbddd	0.004813893
145	0xbe6ae3dc	-0.22938484
146	0xbd59c8f4	-0.05317016
147	0xbcc9c71f	-0.024631081
148	0x3ca30c9e	0.019903477
149	0xbcd12720	-0.025531352
150	0xbd217f00	-0.039427757
151	0x3d49179d	0.049094785
152	0x3e912778	0.28350425
153	0xbdab0157	-0.08349865
154	0x3e89898d	0.26862755
155	0xbcf51d50	-0.029921204
156	0x3efd4c2c	0.49472177
157	0x3a1806c4	0.0005799348
158	0xbe8e2a40	-0.2776661
159	0x3c5ee19a	0.013603592
160	0x3cce52da	0.025185991
161	0x3e773b30	0.24143672
162	0x3dc70bd7	0.09719055
163	0xbd853ce1	-0.06505752
164	0xbdb9392e	-0.09044109
165	0xbd46101b	-0.048355203
166	0x3de8cc7f	0.113671295
167	0xbe4fdb29	-0.20298447
168	0x3c92b00a	0.017906208
169	0xbe10372a	-0.14083543
170	0x3d79ed46	0.061017297
171	0xbe51f4e6	-0.20503578
172	0x3d483b42	0.048884638
173	0xbd36adb9	-0.04459927
174	0x3e73bb30	0.23801875
175	0xbe2af0cb	-0.16693418
176	0xbdbdab12	-0.09261145
177	0xbde027fb	-0.10945126
178	0x3f0b22c8	0.54349947
179	0x3c5b41d5	0.013382395
180	0xbe631b1d	-0.22178312
181	0x3d0d146e	0.03444331
182	0xbdcc4b64	-0.09975317
183	0x3e2b6837	0.16738974
184	0xbd763549	-0.06010941
185	0xbe2634d7	-0.16231094
186	0xbe125fee	-0.14294407
187	0x3ea122c7	0.31471846
188	0x3da6fd29	0.08153755
189	0x3eaac9ba	0.3335703
190	0xbd581c83	-0.052761566
191	0xbe38344c	-0.179887
192	0x3e680166	0.22656783
193	0x3e92a8e1	0.2864447
194	0xbd0fdf8b	-0.035125297
195	0x3d2b8e5b	0.041883808
196	0x3e1f6587	0.15566073
197	0xbd9bb24c	-0.07602367
198	0xbdde51a8	-0.108554184
199	0x3de62d07	0.11239057
200	0x3dc2be27	0.09508925
201	0x3e2578fa	0.1615943
202	0xbd4e9209	-0.05043224
203	0x3e388429	0.18019165
204	0x3db29351	0.087195046
205	0xbdd40d76	-0.1035413
206	0x3e512478	0.20424068
207	0x3bd5573b	0.006510643
208	0x3d0ebeaa	0.0348498
209	0xbe57ee41	-0.2108698
210	0x3cffe863	0.03123874
211	0xbe2fe02e	-0.17175362
212	0x3d37fe9d	0.044920553
213	0x3edd6afe	0.4324569
214	0x3f1fbd39	0.62398106
215	0xbeb57320	-0.35439396
216	0x3debbbb5	0.11510412
217	0x3d33b555	0.043874104
218	0xbe23eefa	-0.16009131
219	0x3d999954	0.07499948
220	0xbe6aa447	-0.2291423
221	0xbde2bec2	-0.110715404
222	0x3a2e79e4	0.00066557364
223	0xbcb8ba65	-0.022549817
224	0xbe1ef50d	-0.15523167
225	0xbe4ebfce	-0.20190355
226	0xbce76a46	-0.028248917
227	0xbd1c43a4	-0.038150445
228	0xbdf646df	-0.12025236
229	0x3e30db1a	0.1727108
230	0xbe911d7b	-0.28342804
231	0x3d3adaf2	0.04561896
232	0x3c4da648	0.012551852
233	0x3e0d88a8	0.13821661
234	0x3e1f2e95	0.15545113
235	0x3d0ee477	0.03488585
236	0xbdaa5579	-0.08317084
237	0xbe00061f	-0.12502335
238	0xbd92964d	-0.07157574
239	0xbd02c2d1	-0.031924073
240	0xbe3076f0	-0.17232871
241	0x3e181352	0.1485112
242	0x3cd8e0df	0.026474414
243	0xbdb7e429	-0.08979065
244	0x3d739b25	0.05947413
245	0x3e92b37d	0.28652564
246	0xbd82009a	-0.06347771
247	0x3e0e278d	0.13882275
248	0x3c9415dc	0.01807683
249	0xbd169572	-0.036763616
250	0xbe905e9d	-0.28197184
251	0x3da9535e	0.08267854
252	0x3d066968	0.032815367
253	0xbe1c7103	-0.15277486
254	0xbdaeba6c	-0.08531651
255	0xbe04892f	-0.12942956

layer2.bias f4 [64]
0	0xbdd0db31	-0.101980574
1	0xbc9929fe	-0.018696781
2	0x3ddeb836	0.10874979
3	0xbd349f39	-0.04409716
4	0x3e404b40	0.18778706
5	0x3cf18d3e	0.029486295
6	0x3d1797e4	0.03701009
7	0x3e16d1b1	0.14728428
8	0x3cc38afe	0.023869988
9	0xbce8d636	-0.028422456
10	0x3c80d723	0.015727585
11	0x3da6c2e9	0.08142645
12	0x3e1a54fd	0.15071483
13	0xbd4228ab	-0.047402065
14	0x3d5d8171	0.054078523
15	0x3e27feaa	0.1640574
16	0x3d2947c7	0.041328218
17	0x3df31230	0.11868703
18	0xbd1dd2d3	-0.038531136
19	0x3dce5867	0.10075455
20	0x3cb78748	0.022403374
21	0x3d6730d3	0.056443047
22	0x3d8b43e6	0.0680006
23	0xbdc44504	-0.09583476
24	0x3d4c3812	0.04985816
25	0x3dff5e84	0.12469199
26	0x3e1b9183	0.15192227
27	0x3d43c64d	0.047796536
28	0xbddc7139	-0.10763783
29	0x3e896f4d	0.26842728
30	0xbb5f0b54	-0.0034033852
31	0x3e12b4d1	0.14326788
32	0x3bcc4175	0.006233389
33	0x3d92541d	0.071449496
34	0xbd731711	-0.05934817
35	0xbc813b9f	-0.0157755
36	0x3e05f622	0.13082173
37	0x3e17b766	0.14816055
38	0xbcb2bfd5	-0.021819988
39	0x3da60468	0.08106309
40	0x3dbbf86e	0.091782436
41	0x3e3f83e1	0.18702652
42	0xbd646858	-0.055763572
43	0xbc0ec783	-0.0087145595
44	0xbdaebe41	-0.08532382
45	0xbd601405	-0.054706592
46	0x3dad607e	0.0846567
47	0x3d12b4b5	0.035816867
48	0xbd545537	-0.05183908
49	0x3d22e3e4	0.039768115
50	0xbdf7c4e4	-0.12098101
51	0x3e147c8f	0.1450064
52	0x3de076cd	0.109601595
53	0xbd88fe3f	-0.066891186
54	0xbd8550db	-0.065095626
55	0x3dda0bab	0.10646757
56	0xbcb6b60c	-0.022303604
57	0x3bccc6b4	0.006249273
58	0xbe0e43ea	-0.13893095
59	0xbd7799fe	-0.060449593
60	0xbd427a5d	-0.047479976
61	0x3d8744eb	0.06604942
62	0x3d87679c	0.06611559
63	0x3bab1084	0.0052204747

layer3.weight f4 [2, 64]
0	0x3e20d537	0.15706335
1	0x3ee9b85c	0.45648468
2	0xbec4d6a4	-0.38445008
3	0x3e9e5af4	0.30928767
4	0xbe3c9437	-0.18415914
5	0xbe721c44	-0.23643595
6	0xbde88857	-0.1135413
7	0xbe46cba6	-0.19413623
8	0xbe7724bb	-0.24135105
9	0x3e10e644	0.1415034
10	0x3f1dab8d	0.6158989
11	0xbe701ddd	-0.23448892
12	0xbe949b27	-0.29024622
13	0x3e252cbe	0.16130349
14	0x3e7c27db	0.24624579
15	0xbe706c90	-0.23478913
16	0xbe83019e	-0.2558717
17	0xbe71b21d	-0.23603101
18	0x3eb5b0d3	0.3548647
19	0xbe5ea904	-0.21744162
20	0x3e83c948	0.25739503
21	0xbf088490	-0.53327274
22	0xbe6db86f	-0.23214887
23	0x3e9038ef	0.28168437
24	0x3eabee0d	0.33580056
25	0xbe5df3e4	-0.21675068
26	0xbe9f05cf	-0.3105912
27	0xbe371593	-0.17879324
28	0x3e89497a	0.2681387
29	0xbed47901	-0.4149857
30	0x3ea364ff	0.3191299
31	0xbe31b4fa	-0.17354193
32	0x3e676f5f	0.22601078
33	0xbe8a8e1a	-0.2706154
34	0x3e8cbd13	0.27488002
35	0x3ed1dc2b	0.40988287
36	0xbebfb4f8	-0.37442756
37	0xbe6798c2	-0.22616866
38	0x3f08d740	0.53453445
39	0xbe3b3ace	-0.18284151
40	0xbe82cfda	-0.25549203
41	0xbe1aa990	-0.15103745
42	0x3e8232b9	0.25429323
43	0x3e6443a9	0.22291435
44	0x3e23efd5	0.16009457
45	0x3dcea220	0.10089517
46	0xbe3720ad	-0.17883559
47	0x3d11dc24	0.035610333
48	0x3eb62407	0.35574362
49	0xbe823159	-0.25428274
50	0x3e82cd00	0.25547028
51	0xbe898ba6	-0.26864356
52	0xbdeedd02	-0.11663248
53	0x3de9263c	0.11384246
54	0x3e8fc389	0.2807887
55	0xbe28dcb3	-0.1649044
56	0xbe457772	-0.19283846
57	0x3e4aae96	0.19793162
58	0x3e7723a7	0.24134694
59	0xbee0c1f2	-0.4389797
60	0x3e8e9600	0.27848816
61	0xbd9152da	-0.07095881
62	0xbdf418d1	-0.11918796
63	0xbc3c3d6a	-0.011489252
64	0xbe8ab5e6	-0.27091902
65	0xbf117bc5	-0.5682948
66	0x3eae7d80	0.34080124
67	0xbe6caf54	-0.23113757
68	0x3e524697	0.2053474
69	0x3e775c6e	0.24156353
70	0x3e4bf5bd	0.1991796
71	0x3ec45630	0.38347006
72	0x3e8548d4	0.26032126
73	0xbe8bab48	-0.27279115
74	0xbf06fa11	-0.5272532
75	0x3e862adb	0.2620457
76	0x3e97ce35	0.2964951
77	0xbe7498e8	-0.23886454
78	0xbe8a3ba1	-0.26998618
79	0x3e2ea1f8	0.17053974
80	0x3e4b530d	0.198559
81	0x3e8c6c75	0.27426496
82	0xbe829b76	-0.25509232
83	0x3df9f2ad	0.1220449
84	0xbe3636cb	-0.1779434
85	0x3f235ba8	0.6381173
86	0x3e98f210	0.2987218
87	0xbe9d36d5	-0.30705896
88	0xbe66b6f5	-0.2253073
89	0x3e2570d3	0.1615632
90	0x3e6c77c0	0.23092556
91	0x3dfd193b	0.12358328
92	0xbe1bc85a	-0.15213147
93	0x3eaac6dc	0.33354843
94	0xbe081e52	-0.13292816
95	0x3ea6a22f	0.3254561
96	0xbe97d2f3	-0.2965313
97	0x3e5ee504	0.2176705
98	0xbe9f801d	-0.3115243
99	0xbeeecf04	-0.46642315
100	0x3e98dbed	0.2985529
101	0x3e635e58	0.22203958
102	0xbf03635d	-0.5132349
103	0x3e30b8a7	0.1725794
104	0x3eaec939	0.34137896
105	0x3e6e79d7	0.23288666
106	0xbe24f2c7	-0.16108237
107	0xbe6ff891	-0.23434664
108	0xbe8f691e	-0.28009886
109	0xbe8c4d18	-0.27402568
110	0x3e696257	0.2279142
111	0x3cfc8df1	0.030829402
112	0xbe72cd58	-0.23711145
113	0x3e63ebeb	0.22257964
114	0xbec8df35	-0.39232793
115	0x3e0dcdb7	0.13848005
116	0x3e420c32	0.18949965
117	0xbde8e550	-0.11371863
118	0xbe6351c0	-0.22199154
119	0x3e200367	0.15626298
120	0x3e22d6ff	0.15902327
121	0xbe94a2a8	-0.29030347
122	0xbde6fd32	-0.11278762
123	0x3f225cd3	0.6342289
124	0xbdbd6cb4	-0.09249249
125	0x3e5259fa	0.20542136
126	0x3e823456	0.25430554
127	0xbc832f0a	-0.01601364

layer3.bias f4 [2]
0	0xbe37d8e4	-0.17953831
1	0xbd16358e	-0.036672167
